SimpleStratifiedWeights2.pth (torch, 7263 bytes, 6 tensors)

fc.0.weight f4 [24, 17]
20.673426 -4.40821 -3.9604163 33.336918 -7.291875 8.69485 -32.050953 -53.70904
-18.34771 1.9406172 -3.550938 -20.464422 -45.79088 -17.031065 10.363013 -1.8258189
-0.22061257 4.0076647 4.1286616 1.9787025 5.425888 -22.969206 2.3752418 7.679403
5.53089 8.847585 -24.371737 -6.779611 -6.714821 3.7616043 5.177882 -24.13742
-0.15284115 -0.21642436 -4.038359 -5.165755 -5.4405537 -5.149247 -3.5370226 -4.535363
-3.6040494 -8.30802 -7.8120294 -5.0446544 -4.9808273 -2.435007 -3.1294582 -3.0121205
-1.3445044 -3.5949936 0.1205973 -4.0485144 -4.610771 -4.372384 -4.3888655 -4.294756
-4.6426716 -4.5650206 -6.7718067 -6.531225 -5.47416 -4.658679 -3.6963656 -4.1407013
-4.1529503 -2.7567422 -1.9873226 0.112021655 7.972033 16.003267 -4.7257485 31.33087
-8.118697 8.9069605 33.93185 11.651979 33.279053 -5.9522314 0.73170936 24.022537
7.101651 23.987944 -0.46427423 -0.5381799 -0.1148407 -26.319973 -26.02149 -9.49461
3.1521254 -37.982666 -13.984585 -22.614544 -9.087865 2.438646 -37.079563 -17.1865
-15.984949 -11.13189 -4.6396794 -42.378128 0.18221219 0.1282039 -2.056143 -6.221727
10.500491 21.338142 -6.1771336 -8.381813 5.227298 12.428542 26.217875 -3.9066427
0.088001475 -17.190231 5.25346 17.362352 -2.0415883 -2.7970362 -0.069882035 -4.2179737
-4.6826363 -4.4543037 -4.3561316 -3.8398578 -4.4975986 -4.2615223 -6.56766 -6.1875596
-5.0909038 -5.2581606 -3.5381062 -3.663832 -3.339645 -2.3171577 -2.7285066 0.113639235
5.011404 0.8230525 -9.292443 -7.0174007 -29.948755 -0.32685715 -1.0308455 -5.0122395
-1.0685561 -31.746098 -11.497851 -6.21346 -5.4150233 -4.0031123 -32.04763 -0.33927783
-0.21883634 -4.125797 -4.776867 -5.457321 -5.152276 -4.28352 -4.4557624 -4.2091775
-7.230571 -7.067827 -5.966355 -4.722118 -3.0359943 -3.498428 -3.206433 -2.1187732
-2.6978314 -0.13373725 1.9024265 11.364996 22.023998 24.642406 -12.895194 1.2728914
13.640859 -5.1539593 -2.392627 -37.75423 -9.094678 3.0578306 -13.650241 -11.680225
-34.874084 -2.4393961 0.12433821 3.5470674 -5.0640244 -12.245044 -10.012833 -31.217094
-1.8526485 -6.9366198 -8.7228 -4.639246 -32.809128 -13.168536 -7.353589 -8.554733
-7.1719527 -33.418583 -1.9571497 0.08229488 -3.8622715 -5.423632 -7.5259123 -6.706093
-3.3016393 -4.576195 -3.3898952 -11.520169 -11.221367 -8.886416 -5.2992406 -2.1536481
-0.41424626 -0.030947315 0.8330649 -2.7858462 -0.06513624 -4.650595 -4.3965645 -5.6128383
-5.462418 -3.925681 -5.019121 -3.856473 -7.7545557 -7.0723343 -5.2377806 -5.388915
-2.377382 -4.205382 -4.3881464 -3.23256 -3.0457785 0.035417855 -31.515348 -40.450676
-40.467968 -34.19719 -44.963326 -20.41215 -29.46752 -26.102812 -14.0607605 -43.503967
-22.251743 -25.117332 -20.903326 -17.790901 -53.763702 1.3046051 0.22595224 5.371342
00000000: 2d63 a541 0e10 8dc0 7677 7dc0 0159 0542
00000010: 0a57 e9c0 1b1e 0b41 2d34 00c2 0fd6 56c2
00000020: 1cc8 92c1 2566 f83f 9142 63c0 23b7 a3c1
00000030: dc29 37c2 9f3f 88c1 e7ce 2541 6fb4 e9bf
00000040: 43e8 61be ca3e 8040 ff1d 8440 2046 fd3f
00000050: e0a0 ad40 efc0 b7c1 f603 1840 abbd f540
00000060: 0dfd b040 b58f 0d41 51f9 c2c1 93f2 d8c0
00000070: d0df d6c0 20be 7040 36b1 a540 7019 c1c1
00000080: 6482 1cbe 599e 5dbe 3d3a 81c0 dd4d a5c0
00000090: 0419 aec0 a2c6 a4c0 945e 62c0 b221 91c0
000000a0: bfa8 66c0 a6ed 04c1 25fc f9c0 cf6d a1c0
000000b0: f062 9fc0 28d7 1bc0 0b49 48c0 95c6 40c0
000000c0: b818 acbf 6014 66c0 b8fb f63d 6e8d 81c0
000000d0: 708b 93c0 92ea 8bc0 9671 8cc0 a46e 89c0
000000e0: c490 94c0 a614 92c0 a4b2 d8c0 ccff d0c0
000000f0: 522c afc0 e613 95c0 4191 6cc0 a080 84c0
00000100: f8e4 84c0 776e 30c0 9660 febf 9c6b e53d
00000110: e51a ff40 b106 8041 5539 97c0 9fa5 fa41
00000120: 2fe6 01c1 e982 0e41 37ba 0742 826e 3a41
00000130: c01d 0542 ae78 bec0 4e51 3b3f 282e c041
00000140: ba40 e340 4fe7 bf41 5ab5 edbe 28c6 09bf
00000150: 9a31 ebbd 4e8f d2c1 032c d0c1 ece9 17c1
00000160: 6cbc 4940 40ee 17c2 dcc0 5fc1 96ea b4c1
00000170: e567 11c1 c712 1c40 7951 14c2 f47d 89c1
00000180: 5ac2 7fc1 391c 32c1 4178 94c0 3483 29c2
00000190: d595 3a3e e247 033e d997 03c0 6318 c7c0
000001a0: 0302 2841 84b4 aa41 14ab c5c0 e81b 06c1
000001b0: 0646 a740 4fdb 4641 35be d141 6f06 7ac0
000001c0: 1e3a b43d 9885 89c1 581c a840 19e6 8a41
000001d0: 62a9 02c0 a402 33c0 501e 8fbd a4f9 86c0
000001e0: 28d8 95c0 a889 8ec0 6e65 8bc0 3bc0 75c0
000001f0: 54ec 8fc0 645e 88c0 452a d2c0 7d00 c6c0
00000200: afe8 a2c0 da42 a8c0 5570 62c0 397c 6ac0
00000210: bebc 55c0 504c 14c0 da9f 2ec0 b0bb e83d
00000220: 6c5d a040 92b3 523f d9ad 14c1 8c8e e0c0
00000230: 0d97 efc1 d259 a7be bff2 83bf 4464 a0c0
00000240: 72c6 88bf 02f8 fdc1 33f7 37c1 aad4 c6c0
00000250: df47 adc0 7f19 80c0 c630 00c2 d3b5 adbe
00000260: a216 60be 8706 84c0 18dc 98c0 60a2 aec0
00000270: 72df a4c0 9912 89c0 9b95 8ec0 95b1 86c0
00000280: d660 e7c0 a42b e2c0 61ec bec0 971b 97c0
00000290: bb4d 42c0 3fe6 5fc0 3336 4dc0 fb99 07c0
000002a0: 45a9 2cc0 6bf2 08be b682 f33f 06d7 3541
000002b0: 2631 b041 a623 c541 b752 4ec1 1bee a23f
000002c0: f540 5a41 3ced a4c0 cd20 19c0 5504 17c2
000002d0: cd83 11c1 7fb3 4340 6367 5ac1 34e2 3ac1
000002e0: 107f 0bc2 111f 1cc0 08a5 fe3d 2703 6340
000002f0: 7d0c a2c0 b3eb 43c1 9034 20c1 9cbc f9c1
00000300: 9623 edbf caf8 ddc0 9790 0bc1 b474 94c0
00000310: 8c3c 03c2 53b2 52c1 9a50 ebc0 30e0 08c1
00000320: a380 e5c0 a1ac 05c2 e283 fabf 388a a83d
00000330: 752f 77c0 658e adc0 46d4 f0c0 5098 d6c0
00000340: 0f4e 53c0 3070 92c0 0bf4 58c0 9d52 38c1
00000350: b88a 33c1 c32e 0ec1 6193 a9c0 5fd5 09c0
00000360: 1618 d4be 3985 fdbc be43 553f 4e4b 32c0
00000370: 2666 85bd add1 94c0 a8b0 8cc0 5f9c b3c0
00000380: 21cc aec0 5c3e 7bc0 a49c a0c0 74d0 76c0
00000390: 5225 f8c0 9050 e2c0 e69b a7c0 fe71 acc0
000003a0: 0727 18c0 7d92 86c0 b26b 8cc0 43e2 4ec0
000003b0: 09ee 42c0 5012 113d 6f1f fcc1 7ecd 21c2
000003c0: 33df 21c2 ecc9 08c2 72da 33c2 154c a3c1
000003d0: 7bbd ebc1 8fd2 d0c1 e0f8 60c1 1004 2ec2
000003e0: 9203 b2c1 4cf0 c8c1 033a a7c1 c453 8ec1
000003f0: 080e 57c2 4dfd a63f 0660 673e 09e2 ab40

fc.0.bias f4 [24]
-0.5809394 -9.592024 -4.760507 -4.779801 3.0251763 -21.207737 -2.0630732 -4.7980976
-14.750867 -4.6089997 -9.053342 -15.969883 -4.683056 -4.967601 -27.716545 -10.478864
-4.4519014 -3.455768 -13.968431 -5.2823563 -4.5344014 -5.357085 -4.8776245 -4.4323435
00000000: 72b8 14bf ee78 19c1 1356 98c0 21f4 98c0
00000010: 7d9c 4140 72a9 a9c1 6409 04c0 048a 99c0
00000020: 8d03 6cc1 ed7c 93c0 7dda 10c1 a484 7fc1
00000030: 98db 95c0 96f6 9ec0 7cbb ddc1 6da9 27c1
00000040: fa75 8ec0 4e2b 5dc0 b27e 5fc1 1009 a9c0
00000050: d119 91c0 3e6d abc0 8015 9cc0 c2d5 8dc0

fc.2.weight f4 [24, 24]
-5.1128054 -0.879526 1.3244308 1.8979816 -8.229726 -4.6629715 6.6518555 0.8085433
-3.0452142 2.0516987 -0.9025836 -2.8195953 1.9751054 1.1917826 7.310659 -1.4950958
2.448702 -2.040833 -2.7588234 0.6851461 1.4017061 -2.7356768 1.0556005 2.4374793
16.634565 30.411089 24.42987 24.398968 10.770849 15.09957 20.075792 24.42815
53.995235 24.753014 34.67478 38.430107 24.774399 24.730385 78.67093 32.88975
24.619556 23.754475 48.016346 24.943142 24.688301 20.247854 24.422928 24.673237
-3.6591256 -0.13127188 2.16423 2.194084 -5.8532767 -7.016562 7.3089266 1.8000393
-4.2150784 2.4484222 0.06277067 -4.116753 2.1522987 1.1912409 6.224638 -1.2771599
2.4630992 2.3123014 -3.9359963 0.44133416 1.8779233 -3.513983 2.0965354 2.2153165
1.4828889 9.252393 10.079551 11.568942 -0.08897104 4.845619 3.6494958 11.3606615
5.509897 11.417844 9.079876 5.569492 11.515428 11.070461 3.71582 8.21792
11.364352 14.162038 6.536278 10.059137 11.152915 7.3332815 11.297427 11.411326
-5.5235524 -0.9564979 0.8686243 1.8590947 -5.71114 -2.5361829 7.2599325 1.3040503
-1.1991892 1.5721729 -1.0485028 -0.49675354 1.6798323 1.4937786 7.529805 -1.375302
2.2324739 -2.3011267 -0.6575761 0.21020523 1.2672395 -1.5294653 1.1823834 2.2027924
1.73166 5.98151 7.05005 8.303606 0.70769846 3.6650724 0.19631329 7.9053774
3.6597495 7.9394293 5.84803 3.4054995 8.174184 7.7078314 1.3282092 5.592635
8.108985 3.336113 5.1448255 6.6938553 8.178933 6.3472605 7.991678 8.039878
-0.6322216 13.721621 5.555937 5.683917 -5.523014 0.8128106 4.1757665 5.801091
35.7889 5.5467014 16.197832 20.33768 5.5151663 5.8996477 83.53694 14.272536
5.489232 4.5695586 30.30999 6.0134983 5.5678864 1.7279193 5.741439 5.745969
48.713234 22.771923 5.054536 4.952512 16.22428 -12.430158 -109.71208 4.742222
-10.904765 5.164982 24.767694 -14.243405 4.885769 4.0168095 -24.073553 30.212376
5.300458 -16.162064 -6.1015024 3.2996182 4.784446 -10.617357 4.835001 5.0992327
64.53303 86.50723 85.33868 85.04376 28.788277 19.344656 78.09673 85.17128
106.05333 85.04531 91.79468 83.010475 85.090866 85.89639 75.00434 89.49682
85.18082 84.0095 99.38723 85.13747 85.00275 78.36589 85.001625 85.065765
-4.4163175 -1.0688742 0.8169319 0.76130396 -5.1197248 -1.6369972 9.7375145 0.4076578
-1.3837943 0.9079561 -1.3810637 -0.08078406 0.68775684 -0.58415985 6.5082154 -1.4103497
0.81675357 0.47626588 -1.5410354 0.6215768 0.304563 -1.2003249 0.39694864 1.3522335
3.1146176 5.1099277 7.56455 7.077398 -2.2038617 4.7620764 0.9462455 7.065344
5.255608 7.1868157 5.68308 5.0421414 6.937354 7.8848047 1.935465 5.0080867
00000000: 1a9c a3c0 9e28 61bf f386 a93f 10f1 f23f
00000010: f5ac 03c1 1037 95c0 00dc d440 b2fc 4e3f
00000020: cae4 42c0 084f 0340 b80f 67bf 4074 34c0
00000030: 41d0 fc3f 558c 983f ebf0 e940 4d5f bfbf
00000040: 89b7 1c40 029d 02c0 9090 30c0 bc65 2f3f
00000050: 1b6b b33f 5415 2fc0 eb1d 873f a9ff 1b40
00000060: 9713 8541 e949 f341 6070 c341 1631 c341
00000070: 6655 2c41 d797 7141 399b a041 da6c c341
00000080: 1ffb 5742 2c06 c641 fab2 0a42 6eb8 1942
00000090: f831 c641 d4d7 c541 8457 9d42 1b8f 0342
000000a0: daf4 c441 2a09 be41 bd10 4042 8e8b c741
000000b0: a481 c541 9bfb a141 2862 c341 ca62 c541
000000c0: 1d2f 6ac0 236c 06be bf82 0a40 df6b 0c40
000000d0: 0b4e bbc0 ad87 e0c0 bae2 e940 b067 e63f
000000e0: ece1 86c0 f3b2 1c40 e98d 803d 71bc 83c0
000000f0: 43bf 0940 957a 983f 3c30 c740 fa79 a3bf
00000100: 6ba3 1d40 bffc 1340 5de7 7bc0 8df6 e13e
00000110: ca5f f03f 19e5 60c0 a32d 0640 bfc7 0d40
00000120: 4ecf bd3f cd09 1441 d745 2141 631a 3941
00000130: 7336 b6bd 500f 9b40 5791 6940 45c5 3541
00000140: 1451 b040 7daf 3641 2c47 1141 4739 b240
00000150: 313f 3841 9c20 3141 ffcf 6d40 9a7c 0341
00000160: 63d4 3541 b597 6241 3029 d140 3af2 2041
00000170: 5772 3241 3eaa ea40 43c2 3441 cb94 3641
00000180: f1c0 b0c0 0cdd 74bf 2a5e 5e3f d1f6 ed3f
00000190: a9c1 b6c0 d250 22c0 5e51 e840 1feb a63f
000001a0: 087f 99bf f63c c93f 5735 86bf 7b56 febe
000001b0: bf04 d73f 2334 bf3f 2af4 f040 e509 b0bf
000001c0: dae0 0e40 a945 13c0 e856 28bf 0a40 573e
000001d0: e734 a23f 85c5 c3bf 5758 973f 8dfa 0c40
000001e0: 09a7 dd3f 8868 bf40 029a e140 92db 0441
000001f0: ba2b 353f 8c90 6a40 5a06 493e daf8 fc40
00000200: 5639 6a40 ce0f fe40 1023 bb40 b4f3 5940
00000210: 75c9 0241 8ea6 f640 c202 aa3f def6 b240
00000220: 67be 0141 e082 5540 69a2 a440 1034 d640
00000230: e9dc 0241 c21c cb40 d4bb ff40 57a3 0041
00000240: 46d9 21bf c28b 5b41 3cca b140 a6e2 b540
00000250: 88bc b0c0 5b14 503f e19f 8540 8aa2 b940
00000260: d527 0f42 947e b140 2995 8141 92b3 a241
00000270: 3e7c b040 eac9 bc40 ea12 a742 4f5c 6441
00000280: caa7 af40 d339 9240 dc7a f241 946e c040
00000290: 202c b240 762c dd3f deb9 b740 fade b740
000002a0: 5ada 4242 e62c b641 c2be a140 fa7a 9e40
000002b0: 53cb 8141 ede1 46c1 966c dbc2 48c0 9740
000002c0: eb79 2ec1 8847 a540 3d24 c641 fde4 63c1
000002d0: 3858 9c40 b489 8040 a396 c0c1 f2b2 f141
000002e0: 5a9d a940 e84b 81c1 823f c3c0 f22c 5340
000002f0: 2e1a 9940 b2e0 29c1 54b8 9a40 ea2c a340
00000300: e910 8142 b403 ad42 67ad aa42 6816 aa42
00000310: 644e e641 dbc1 9a41 8731 9c42 b257 aa42
00000320: 4e1b d442 3317 aa42 e096 b742 5d05 a642
00000330: 862e aa42 f4ca ab42 3902 9642 5ffe b242
00000340: 945c aa42 dd04 a842 43c6 c642 6246 aa42
00000350: 6801 aa42 56bb 9c42 d500 aa42 ac21 aa42
00000360: 7952 8dc0 dfd0 88bf 7322 513f d1e4 423f
00000370: c9d4 a3c0 2089 d1bf dccc 1b41 86b8 d03e
00000380: 2c20 b1bf d06f 683f b2c6 b0bf 1d72 a5bd
00000390: d510 303f 808b 15bf 4d43 d040 5786 b4bf
000003a0: c316 513f 1fd9 f33e a640 c5bf a81f 1f3f
000003b0: aeef 9b3e 3fa4 99bf da3c cb3e fd15 ad3f
000003c0: e555 4740 8784 a340 cb10 f240 0b7a e240
000003d0: 120c 0dc0 ee62 9840 253d 723f 4c17 e240
000003e0: f12d a840 65fa e540 cbdb b540 3959 a140
000003f0: cefe dd40 5250 fc40 51bd f73f 3f42 a040

fc.2.bias f4 [24]
-0.07182813 -24.428036 -1.8213841 -11.12296 -0.68165267 -7.771142 -5.4927893 -4.659621
-85.29048 0.34611812 -6.626396 0.7939635 -0.25302842 -3.495454 11.130077 0.6612298
-7.2854996 -4.576717 -80.524994 -13.033483 -0.22131015 -9.492066 -8.366588 15.64575
00000000: a01a 93bd 9e6c c3c1 1d23 e9bf a5f7 31c1
00000010: ca80 2ebf 32ad f8c0 eec4 afc0 9d1b 95c0
00000020: ba94 aac2 6536 b13e 700b d4c0 3141 4b3f
00000030: f18c 81be 85b5 5fc0 cc14 3241 5b46 293f
00000040: d022 e9c0 7774 92c0 cc0c a1c2 2589 50c1
00000050: 219f 62be 81df 17c1 8bdd 05c1 fe54 7a41

fc.4.weight f4 [9, 24]
97.192314 -33.16954 99.00843 92.05472 100.00626 90.587204 -35.986294 -49.2179
-95.62362 101.33792 91.57383 98.585236 98.23411 90.74623 -41.722744 99.38421
94.15969 93.28702 -100.44048 153.23502 97.04043 0.3792953 -33.2405 -50.67409
86.8055 -32.57762 91.43202 84.70854 93.42392 81.19486 -36.40635 -50.334457
-88.77074 93.33097 82.44374 85.03877 88.68829 62.406055 -41.09429 89.35834
86.86352 85.85261 -82.14143 119.643616 85.00986 36.333668 -33.664894 -45.813297
78.2271 -38.226166 77.8754 63.267742 78.98942 55.391495 -38.548122 -43.361282
-96.000694 79.795105 69.42567 78.79832 77.16906 80.46016 -40.02153 78.328735
73.95388 73.5346 -92.8345 111.58525 74.93053 -3.0627363 -37.09161 -45.173573
84.08647 -33.20502 88.40345 73.310844 89.77913 70.68992 -36.583363 -26.435278
-90.859245 91.55718 73.2587 84.80943 86.11701 93.41141 -43.028057 86.9986
75.60656 74.43645 -85.23426 32.108936 85.33599 19.301321 -34.677505 -44.674435
67.39197 -34.19231 73.03916 63.42376 74.92641 60.559505 -36.076668 -22.07225
-95.971306 77.824974 61.1274 67.84487 70.95297 69.162346 -37.16098 72.03722
64.78756 64.18898 -91.28829 -18.104216 69.40056 42.4705 -34.292133 -40.716133
66.26134 -37.826244 70.461205 53.202377 71.66095 50.810257 -38.212254 -9.868436
-96.6846 72.29885 51.843357 67.4332 69.15378 112.60796 -39.32274 68.905914
55.380676 54.994095 -87.85659 -60.92318 69.11422 49.212906 -37.0205 -41.180733
85.51456 -39.831314 86.2435 75.15311 86.638 73.09223 -42.18066 9.278602
-106.89476 87.311905 74.5181 86.96721 85.876686 32.180523 -42.74373 86.96641
77.30332 76.27096 -99.23386 -86.32351 83.9961 123.73519 -40.524506 -41.886887
56.499897 -38.488354 59.747444 46.3267 61.005154 42.38053 -40.62962 20.709446
-89.735825 62.373558 39.036797 58.309826 58.818207 82.80601 -41.859882 59.11624
46.399467 46.023285 -87.17509 -69.96879 59.13678 103.00157 -38.84029 -40.027294
65.365974 -35.92584 74.32524 77.56035 76.11985 74.65207 -39.308876 27.610952
-82.33481 76.39498 71.74541 62.40862 70.357475 86.83321 -40.807247 71.75228
80.08145 78.86526 -93.70951 67.67263 67.02025 -23.462353 -38.357346 -38.63997
00000000: 7762 c242 9cad 04c2 5104 c642 041c b842
00000010: 3503 c842 a62c b542 f7f1 0fc2 21df 44c2
00000020: 4b3f bfc2 04ad ca42 cd25 b742 a42b c542
00000030: dd77 c442 127e b542 17e4 26c2 b7c4 c642
00000040: c351 bc42 f492 ba42 87e1 c8c2 2a3c 1943
00000050: b314 c242 fe32 c23e 46f6 04c2 45b2 4ac2
00000060: 6a9c ad42 7c4f 02c2 32dd b642 c66a a942
00000070: 0cd9 ba42 c563 a242 1aa0 11c2 7c56 49c2
00000080: 9e8a b1c2 75a9 ba42 32e3 a442 da13 aa42
00000090: 6860 b142 cd9f 7942 8e60 24c2 78b7 b242
000000a0: 1fba ad42 89b4 ab42 6a48 a4c2 8849 ef42
000000b0: 0c05 aa42 ad55 1142 daa8 06c2 d140 37c2
000000c0: 4674 9c42 98e7 18c2 34c0 9b42 2b12 7d42
000000d0: 95fa 9d42 e490 5d42 4731 1ac2 f471 2dc2
000000e0: 5b00 c0c2 1897 9f42 f1d9 8a42 bd98 9d42
000000f0: 8f56 9a42 9aeb a042 0c16 20c2 50a8 9c42
00000100: 63e8 9342 b711 9342 44ab b9c2 a62b df42
00000110: 6edc 9542 df03 44c0 cf5d 14c2 bdb1 34c2
00000120: 462c a842 f1d1 04c2 91ce b042 279f 9242
00000130: ea8e b342 3d61 8d42 5d55 12c2 737b d3c1
00000140: efb7 b5c2 471d b742 7484 9242 6e9e a942
00000150: e93b ac42 a4d2 ba42 bb1c 2cc2 48ff ad42
00000160: 8f36 9742 76df 9442 f177 aac2 8d6f 0042
00000170: 07ac aa42 1b69 9a41 c4b5 0ac2 9fb2 32c2
00000180: b0c8 8642 edc4 08c2 0d14 9242 eeb1 7d42
00000190: 52da 9542 ef3c 7242 824e 10c2 f893 b0c1
000001a0: 4ff1 bfc2 63a6 9b42 7582 7442 93b0 8742
000001b0: ece7 8d42 1f53 8a42 d8a4 14c2 0e13 9042
000001c0: 3b93 8142 c260 8042 9b93 b6c2 6fd5 90c1
000001d0: 16cd 8a42 cbe1 2942 252b 09c2 52dd 22c2
000001e0: ce85 8442 134e 17c2 23ec 8c42 3ccf 5442
000001f0: 6852 8f42 b43d 4b42 59d9 18c2 1de5 1dc1
00000200: 845e c1c2 0399 9042 995f 4f42 ccdd 8642
00000210: bc4e 8a42 4737 e142 7c4a 1dc2 d4cf 8942
00000220: d085 5d42 f4f9 5b42 93b6 afc2 56b1 73c2
00000230: 7b3a 8a42 04da 4442 fe14 14c2 12b9 24c2
00000240: 7407 ab42 4453 1fc2 ac7c ac42 644e 9642
00000250: a846 ad42 392f 9242 ffb8 28c2 2775 1441
00000260: 1eca d5c2 b29f ae42 4409 9542 36ef ad42
00000270: ddc0 ab42 dbb8 0042 94f9 2ac2 cdee ad42
00000280: 4d9b 9a42 bb8a 9842 bc77 c6c2 a3a5 acc2
00000290: 01fe a742 6b78 f742 1819 22c2 2c8c 27c2
000002a0: e5ff 6142 13f4 19c2 62fd 6e42 8a4e 3942
000002b0: 4705 7442 aa85 2942 bb84 22c2 f2ac a541
000002c0: be78 b3c2 867e 7942 ae25 1c42 433d 6942
000002d0: d845 6b42 ad9c a542 8570 27c2 0877 6c42
000002e0: 0e99 3942 d817 3842 a559 aec2 05f0 8bc2
000002f0: 108c 6c42 ce00 ce42 755c 1bc2 f31b 20c2
00000300: 61bb 8242 0fb4 0fc2 86a6 9442 e61e 9b42
00000310: 5d3d 9842 dc4d 9542 4a3c 1dc2 3be3 dc41
00000320: 6cab a4c2 3bca 9842 a67d 8f42 6da2 7942
00000330: 07b7 8c42 9baa ad42 9f3a 23c2 2b81 8f42
00000340: b429 a042 03bb 9d42 456b bbc2 6358 8742
00000350: 5e0a 8642 e6b2 bbc1 ec6d 19c2 548f 1ac2

fc.4.bias f4 [9]
-94.20093 -86.54277 -73.75788 -75.37613 -64.3071 -55.45973 -77.06507 -45.953014
-80.03654
00000000: e066 bcc2 e615 adc2 0984 93c2 94c0 96c2
00000010: 3c9d 80c2 c3d6 5dc2 5121 9ac2 e3cf 37c2
00000020: b512 a0c2
