SimpleStratifiedVaccineWeights2.pth (torch, 7967 bytes, 6 tensors)

fc.0.weight f4 [24, 24]
00000000: ec64 cac1 0692 46c1 f2ea aa42 6832 7742
00000010: ecaa 2942 c828 4e3d 59c4 13c2 a857 9142
00000020: 1ae7 8142 5e3a 3e42 0201 3e42 2ef4 4542
00000030: b454 0442 e723 dfc2 5d76 fcc1 376d 03c2
00000040: 9ab2 b1c0 1a23 52c0 007f 7cc1 e0dc 7a40
00000050: 84e7 9340 7806 9440 7030 cdc1 8048 b43d
00000060: 3c3b 4041 75cd b141 66c8 1f42 5a04 ab42
00000070: 2dc6 67c2 a43b 143e 763a 91be c378 1940
00000080: d393 3742 8767 9e42 4e7e 8cc1 7f22 e4c1
00000090: 11da 3a42 0762 7a42 0939 fb41 29fd 4842
000000a0: 4367 c1c2 08c7 d5c2 5d69 a3c1 f80a 55c0
000000b0: 9ce9 40c0 a9fa 4ac0 a362 a2c1 8000 a93d
000000c0: b5b0 3dc2 e70f 6241 0280 fa41 a506 1742
000000d0: 99e2 dfc1 72d3 fcbd ffd7 63c2 fc62 15c2
000000e0: eaa3 87bf bebd 4742 b56b e840 de35 9d3c
000000f0: f56a 27c2 5fcd 5d42 9211 2742 8e17 5342
00000100: 8d4d 0f41 28ff 9040 746f 8ac1 44cd bbc1
00000110: 2d76 bcc1 e84e bcc1 61b6 72c1 9a5f 123e
00000120: 4cf9 9ac0 6d07 dec0 d290 15c1 e264 06c1
00000130: 2cc9 94bf a415 e13d 6db2 8bc0 16e9 0dc1
00000140: 0c90 22c1 30af 13c1 2d28 98bf 9a5c 96bf
00000150: 339c 91c0 7b83 8cc0 bb2f f5c0 a479 fdc0
00000160: b398 8cbf 76cb acbf 767a 1ac0 f82c 79c0
00000170: 02ef 80c0 da78 88c0 d75f 17c0 c86a a9bd
00000180: cc0e fec0 b122 4942 1db4 a7c2 8613 9fc2
00000190: d6f5 7fc2 4056 453e 38aa 8dc0 8949 e2c0
000001a0: 4f21 07c2 1cc6 f0c1 aa38 77c1 6922 7dc1
000001b0: c541 4cc0 0712 5442 e222 81c2 a2af 78c2
000001c0: 4454 29c2 ab71 29c2 7eba 0dc2 82a7 3cc1
000001d0: aae0 39c1 bd47 34c1 4a73 d3c1 08b9 a7bd
000001e0: 14ce 9440 b62a 9442 43b5 e242 eccf 4c42
000001f0: 851f a0c1 0ec5 11be 152c 2d41 4fd2 cb42
00000200: ed76 2742 6de2 9dbf 9d57 53c1 b9c2 73c1
00000210: 25a7 7841 727d 76c1 2cc5 f641 b893 8a41
00000220: 76ae 33c2 e051 21c2 cff0 f7c1 387c 33c1
00000230: eee0 32c1 1bbc 33c1 b0e1 c2c1 ec6c 06be
00000240: c725 2ac0 198c ddc0 dc8b c0c1 c21a a6c1
00000250: 2b5d 50c1 161e 253e 92c5 f4bf bdd9 f1c0
00000260: f750 d9c1 18e1 bcc1 caf9 57c1 8924 4ec1
00000270: 53e8 b9bf d5d7 41c1 3e8a c3c1 63b2 bbc1
00000280: 8c5e 83c1 bb80 7fc1 9931 5dc1 407c 06c1
00000290: 1bfb a8c0 eb56 adc0 561c ccc0 d847 24be
000002a0: cf42 2b41 dd4c 50c3 d643 ecc2 5f1b 66c0
000002b0: 0796 7042 323c 3f3e 16dd cc41 96de 00c3
000002c0: ea13 7fc2 c963 b0c1 7360 8c41 e7e8 8f40
000002d0: 96aa 7a42 5df3 03c3 c90a 13c2 e622 8dc1
000002e0: 22c7 5c40 be45 d7c1 2416 64c0 f7a8 4741
000002f0: a40a 4741 90d7 4141 757a 8ac0 840b 34bd
00000300: cf31 a142 991d 72c2 13ae 2ac2 d192 0741
00000310: 1365 29c1 3a8e 163e d87a 0c43 15cb 91c2
00000320: 3fa3 1940 fe45 0642 3145 23c2 3943 43c2
00000330: bcaf 3142 3948 1fc3 80ec 4bc3 5219 42c3
00000340: edf9 31c2 99ad b2c1 4494 7dbe 7b1b 43c1
00000350: 5bcc 3fc1 5102 46c1 63ef 4b3e a084 d4bd
00000360: 8b9b fd3f 8d7d 80c2 d95a 00c1 2865 9440
00000370: 4910 0e42 41b7 b1bd 9bcf 66c1 bbb9 86c2
00000380: 3d23 6f40 1e39 8ac1 94ac 1642 2ab8 1542
00000390: 4e91 c042 ea09 34c2 d41e 18c1 e292 9140
000003a0: d9eb d8c1 e8cf 1bc2 e430 3ec0 1673 8241
000003b0: 678f 8041 269f 8041 3cff 72c0 00c1 a0bb
000003c0: 8548 a941 6616 8642 a1ae f3c1 d069 8942
000003d0: a2cf 26c2 2118 ecbd 8e6f a741 fdb1 5b42
000003e0: a8d3 2c41 31cf 9442 8264 04c2 ebcd 51c2
000003f0: b6d4 5b42 eaee be42 ef58 b541 e9b6 3742
-25.299278 -12.41065 85.45888 61.799225 42.416916 0.05033186 -36.941746 72.6712
64.95137 47.557 47.500984 49.488457 33.082718 -111.57012 -31.557795 -32.856655
-5.553052 -3.2833924 -15.781006 3.9197311 4.622011 4.6257896 -25.648651 0.08802891
12.0144615 22.22532 39.9457 85.5085 -57.94353 0.14475876 -0.28364915 2.3979957
45.89436 79.2022 -17.561672 -28.516844 46.712955 62.59573 31.40285 50.247227
-96.70168 -106.88873 -20.426447 -3.3287945 -3.0142584 -3.171549 -20.298162 0.082520485
-47.422565 14.128882 31.312504 37.75649 -27.985643 -0.123450175 -56.960934 -37.346664
-1.0596898 49.935295 7.263148 0.019190725 -41.85445 55.450558 41.76716 52.773003
8.956433 4.531147 -17.30442 -23.475227 -23.557703 -23.538528 -15.169526 0.14294282
-4.8429317 -6.9384065 -9.3478565 -8.39963 -1.1623893 0.10990456 -4.3655305 -8.869406
-10.160168 -9.23027 -1.1887261 -1.174701 -4.5503173 -4.39105 -7.6620765 -7.9210987
-1.09841 -1.3499591 -2.4137244 -3.8933697 -4.0291758 -4.2647524 -2.3652246 -0.0827232
-7.9393063 50.28388 -83.85178 -79.53813 -63.990074 0.19271183 -4.4270287 -7.0714765
-33.782528 -30.096733 -15.451334 -15.820901 -3.1915143 53.017605 -64.56813 -62.171516
-42.33229 -42.361004 -35.43212 -11.790895 -11.61735 -11.267514 -26.431293 -0.08189589
4.650156 74.08342 113.35403 51.20305 -20.01539 -0.14235327 10.823262 101.91076
41.86614 -1.2334725 -13.20889 -15.23504 15.540807 -15.405626 30.846275 17.322128
-44.920372 -40.329956 -30.992582 -11.217827 -11.179914 -11.233424 -24.360199 -0.13127488
-2.6585557 -6.923352 -24.06829 -20.763065 -13.022746 0.16124758 -1.9122794 -7.5578294
-27.164534 -23.60991 -13.498484 -12.88392 -1.4524025 -12.115193 -24.442501 -23.462103
-16.421165 -15.968928 -13.824609 -8.405334 -5.2806525 -5.41686 -6.378459 -0.16043031
10.703811 -208.30025 -118.13249 -3.5954206 60.14651 0.18675306 25.607952 -128.86948
-63.769447 -22.048723 17.547094 4.4971805 62.666588 -131.95064 -36.760532 -17.64204
3.449654 -26.909054 -3.5638514 12.478751 12.440098 12.115128 -4.3274484 -0.043956295
80.59728 -60.528904 -42.669994 8.473344 -10.587176 0.14702693 140.47986 -72.896645
2.4005888 33.56835 -40.81757 -48.815647 44.421616 -159.28212 -203.92383 -194.0989
-44.49407 -22.334764 -0.2476359 -12.194209 -11.987391 -12.375566 0.19915538 -0.10376859
1.9813093 -64.24522 -8.02218 4.637348 35.515903 -0.08677531 -14.425685 -67.362755
3.7365258 -17.27789 37.668533 37.429848 96.2838 -45.00968 -9.507526 4.54918
-27.11516 -38.953033 -2.971734 16.306194 16.07002 16.07771 -3.7968283 -0.00490582
21.16041 67.04375 -30.460268 68.706665 -41.702766 -0.1152804 20.92947 54.923817
10.801674 74.40467 -33.098152 -52.45109 54.957726 95.46663 22.668425 45.928623

fc.0.bias f4 [24]
00000000: 1f90 9c40 809c 46c0 aa9c b9c1 584b 87c0
00000010: f481 34c1 ea48 32c1 30cf a8c0 501e 4641
00000020: 9a59 42c1 1892 8141 09de 0bc0 a6c2 eac0
00000030: cacb c3c0 bbc3 02c0 dfb6 ba41 ffc6 0342
00000040: b96a ed40 fe76 e441 262c f3c0 e574 3242
00000050: 85b2 7ac1 3a1e afc1 70c5 22c1 2b2e a1c0
4.892593 -3.103302 -23.201496 -4.227947 -11.281727 -11.142801 -5.2752914 12.3824005
-12.146875 16.196335 -2.185427 -7.336261 -6.1186266 -2.0431964 23.339293 32.944332
7.4192777 28.558102 -7.599139 44.614155 -15.668584 -21.88976 -10.1732025 -5.0368857

fc.2.weight f4 [24, 24]
00000000: 9c3d 6a3f 2db3 b5bf bd01 8d3f 77f6 573f
00000010: 6000 1cbf a80d 85c0 f624 fabd 98c0 c4bf
00000020: 7db1 13bf 7f3d 0cc0 8308 c8bf e2e3 4d3f
00000030: 05e4 843f 7d90 29c0 5ee4 e4bf 6e89 0ac0
00000040: 20d4 8cc0 32d4 08c0 d089 b8bf 28df 373f
00000050: 0e01 983f 8587 3ebf d686 bdbf f1cd 5b3f
00000060: 51a1 9141 a2ff 8fbf 5dcf 4141 17c7 a941
00000070: f10b 7b41 924b a2c2 130f ad41 eeee b2c0
00000080: be93 503e 0be8 18c0 8ad1 00c0 dab0 aa41
00000090: 76b3 a941 4e89 15c0 cd37 6cc0 2331 adc2
000000a0: 673d 39c0 7ac4 6bbf 4371 1dc0 b496 9d40
000000b0: de28 8a41 c9c2 8c41 63fd 7dbf 0db5 ab41
000000c0: f24f c440 0f50 21c0 2b38 7d3f bb7b c840
000000d0: 9762 ce40 453b 02c0 65e9 a440 12a1 50c0
000000e0: d8be 3ac0 fbca ccc0 9744 cdc0 96bc ce40
000000f0: fd76 d040 0b52 27c0 6a94 c8c0 179f 90c0
00000100: 2ca7 9dbf 17fa 25c0 b262 03c0 5576 1bbf
00000110: ff33 c040 9936 07bf 2a6e 18c0 0733 cc40
00000120: 90ff 3a3e 2d53 5fc1 e0b0 b8c1 98ef a4c1
00000130: b5dc efc1 3f3c 08c0 5d2f aac1 f8fa ce41
00000140: 9cbd 4fc1 a666 9b41 c8d9 4941 548c a4c1
00000150: e649 a6c1 2d31 5042 7f9f 7fc1 da51 7ac2
00000160: b632 6741 f4d5 afc2 16cd cac0 e7ad a341
00000170: 52e7 20c2 c984 00c1 b003 e1bf c4af a5c1
00000180: ab3a 4d40 1033 5fc0 4f70 43c0 ed3a 4740
00000190: e64b 5040 3dc0 01c0 5920 0f40 daa1 42c0
000001a0: ea00 7ec0 168d 5dc0 7bec 4bc0 bd00 5540
000001b0: 2997 5140 23c0 4cc0 aa45 5bc0 dfb4 f2bf
000001c0: e293 56c0 4102 65c0 5c97 47c0 2d1a 3bc0
000001d0: c97b 4840 b6fd 11c0 2a8c 5cc0 c64f 4d40
000001e0: d65a cd40 1d60 bbc0 c1a6 dd40 21c7 c740
000001f0: b49f d040 ccf7 3fc0 4585 a340 d0be 65bf
00000200: 2a5a 87bf 7fc7 d6c0 7c35 d3c0 1e3d d240
00000210: afbb ca40 173f d9c0 e761 73c0 5f6b 94c0
00000220: 1a01 cfc0 2a03 94c0 63df c4bf 4a37 fbbe
00000230: b94e c240 6453 d5bf 3b73 9ec0 da4a c740
00000240: 946d d5c2 e6a1 8d41 d6f7 5242 d392 93c1
00000250: b1d6 acc1 1824 02c2 cd90 92c1 46c6 c83f
00000260: f06a 0dc2 8145 b641 de5f 1b42 dd70 92c1
00000270: b519 95c1 99ba 0042 6269 a3c0 c352 1a42
00000280: f318 0b42 12de 11c2 0d55 1bc2 bebd f2c2
00000290: 7498 83c2 dc1d 8542 0dbd b141 f95b 8fc1
000002a0: 3b1e c440 f8e3 1dbf 4a3d a63f 9782 c640
000002b0: 6691 bc40 e696 86bf 89a0 9f40 3e10 b1bf
000002c0: 7bb4 97bf 0739 d7c0 108d cec0 974e c940
000002d0: 7b51 c940 d97d ccc0 621c bec0 46d1 9fc0
000002e0: 0d60 0dc1 172d c2bf db19 c0bf e887 713f
000002f0: 5ae7 a440 6124 803f bcfc f4c0 857b c740
00000300: cc62 3d40 d914 c33d 2e2a fa3f a0f9 ba40
00000310: cec4 bd40 2de3 913f 4482 9940 85ff 91c0
00000320: 7693 88c0 5358 7c3f 33ed 1ebe aeb0 c440
00000330: 8633 c340 4710 49bf 4e4f 08c0 c95f 9ebb
00000340: 080c 593f 57c8 3abf 30da 84c0 4965 92c0
00000350: de81 9b40 3589 b13f ba19 f7be 80cc ca40
00000360: 8367 2fc1 1cfb de3f 94b5 a8c1 2d4a 28c1
00000370: 5289 88c1 8094 02c2 c15c 23c1 9ae9 1ac1
00000380: 4f6b a0c1 8446 aebd 67ff 28bf 9384 30c1
00000390: a3f0 2ac1 3240 4dbf 45fe 91c1 e96b c0c0
000003a0: 4ce7 943f 8b56 1f40 89cd 78c1 879e 47c1
000003b0: a937 8bc1 bd47 23c2 ea6d 9b40 c324 2ac1
000003c0: 4c3f dc40 1dab e2c0 d522 103f 9e80 d640
000003d0: e0fd d640 dc04 75bf c638 b940 aace 4ebf
000003e0: 80be c7bf 4adb d8c0 e881 dbc0 dacd e040
000003f0: 9b74 da40 b41e d6c0 83d4 d3c0 3cc2 a5c0
0.9150026 -1.4195305 1.1016155 0.8436045 -0.6093807 -4.157917 -0.12214081 -1.5371275
-0.576927 -2.1912534 -1.5627598 0.80425847 1.0382086 -2.6494439 -1.7882192 -2.164638
-4.400894 -2.1379514 -1.4417057 0.71824884 1.1875322 -0.74425536 -1.4806774 0.85861117
18.203768 -1.1249888 12.113126 21.222212 15.690415 -81.1476 21.63236 -5.591666
0.20368859 -2.3891628 -2.0127892 21.336353 21.212627 -2.3365054 -3.6909058 -86.59597
-2.8943727 -0.92096674 -2.460038 4.9246464 17.269955 17.59511 -0.9921476 21.463404
6.134759 -2.5205114 0.9891383 6.265104 6.449535 -2.0348675 5.1534905 -3.259831
-2.9178982 -6.399778 -6.414623 6.4605207 6.514525 -2.6143825 -6.268117 -4.51942
-1.2316642 -2.5933893 -2.052899 -0.60727435 6.006347 -0.52817684 -2.3817239 6.381229
0.18261552 -13.957807 -23.086365 -20.61699 -29.982767 -2.1286771 -21.273127 25.872543
-12.983791 19.425121 12.615669 -20.56852 -20.786083 52.048023 -15.976439 -62.579933
14.449881 -87.91788 -6.337535 20.459913 -40.2259 -8.032418 -1.757925 -20.710823
3.2067058 -3.4874916 -3.0537298 3.1129715 3.2546325 -2.0273583 2.2363493 -3.0411286
-3.9688058 -3.4617362 -3.1863086 3.32817 3.274851 -3.199227 -3.426127 -1.8961447
-3.352776 -3.5782626 -3.1186132 -2.9234726 3.1325552 -2.2811103 -3.446055 3.207994
6.4173384 -5.8554826 6.9266057 6.2430577 6.519495 -2.9994993 5.1100183 -0.8974428
-1.0574391 -6.7118526 -6.600279 6.5699606 6.3354106 -6.7889514 -3.8028505 -4.638107
-6.4688845 -4.625386 -1.5380672 -0.4906562 6.0721097 -1.6666074 -4.951566 6.227887
-106.71402 17.704052 52.742027 -18.446692 -21.60483 -32.535248 -18.320704 1.5685508
-35.35443 22.783937 38.84362 -18.305109 -18.637552 32.182224 -5.106614 38.580822
34.774364 -36.466866 -38.833057 -121.37059 -65.79776 66.55832 22.21731 -17.919909
6.1286902 -0.6167598 1.2987454 6.203441 5.892749 -1.05148 4.9883466 -1.3833082
-1.1851953 -6.7257113 -6.4547195 6.2908435 6.2911963 -6.3903623 -5.9409647 -4.994296
-8.83595 -1.517001 -1.500789 0.94348 5.153241 1.0011102 -7.6558514 6.233828
2.959155 0.09525461 1.9544122 5.842972 5.930274 1.1397454 4.7971516 -4.5624413
-4.2680006 0.9857227 -0.15520172 6.1465673 6.1000395 -0.7854046 -2.1298404 -0.004833196
0.84783983 -0.72961944 -4.151634 -4.574864 4.859603 1.3869997 -0.48261815 6.3374634
-10.962771 1.7420382 -21.088661 -10.518109 -17.06705 -32.64502 -10.210145 -9.682032
-20.052397 -0.085095435 -0.66014713 -11.032367 -10.683749 -0.8017608 -18.249155 -6.0131726
1.1633086 2.4896572 -15.5501795 -12.476203 -17.402178 -40.820057 4.8571672 -10.633975
6.8827267 -7.083388 0.5630315 6.7032003 6.7184906 -0.9571054 5.7881804 -0.80784094
-1.5605011 -6.7767687 -6.8596077 7.0251284 6.826734 -6.691248 -6.6196914 -5.1799603

fc.2.bias f4 [24]
00000000: 06de 2ebf 0ca7 aac1 483f c7c0 1dc4 a741
00000010: 1123 57c0 3a3d d1c0 7ff1 9341 2c20 c5c0
00000020: c20e c2c0 6680 2f41 971c dac0 bb6b 9dc0
00000030: 9560 61c0 f84f b7c0 d779 41c0 2d9b 9640
00000040: 8e0e 2cc1 6157 a6c1 88e9 d5c0 b1bd 56c0
00000050: 1638 16c1 13e0 8ac0 4a0f 6641 1078 38bf
-0.6830753 -21.331566 -6.226475 20.970758 -3.3615153 -6.538724 18.492918 -6.160177
-6.0643015 10.968847 -6.81599 -4.9194007 -3.52152 -5.728512 -3.0230615 4.7064424
-10.753553 -20.792665 -6.684757 -3.3553278 -9.388693 -4.339853 14.378733 -0.720582

fc.4.weight f4 [9, 24]
00000000: 4713 2144 8e6e c343 1b29 2144 16d9 4742
00000010: 611a 2144 b745 2144 91ef 6f42 d911 2144
00000020: 333e 2144 bfa2 bb43 bfd5 2044 4f42 2144
00000030: bd10 2144 865c bc43 b541 2144 e997 bf43
00000040: 292c 2144 ab75 4440 938e 2044 0147 2144
00000050: ca79 8843 1340 2044 2f96 f642 b339 2144
00000060: 8c93 ca43 ae5b b443 de9c bf43 08fe 0fc4
00000070: c8fd c343 18d4 ca43 b0c7 9cc3 c0b8 ca43
00000080: 16e8 ca43 42da 9f43 e8a8 ca43 6cc4 ca43
00000090: 3a77 ca43 ff42 7743 2cc3 ca43 de86 a243
000000a0: c4b4 ca43 38ba 0ac4 5ca7 ca43 9440 c643
000000b0: b4b6 8243 94a1 ca43 dcd7 f7c2 64b7 ca43
000000c0: ab90 a143 8428 1d43 6817 9e43 141b f3c2
000000d0: eeb7 a143 f5d3 a143 52ea b3c2 05a1 a143
000000e0: 42d9 a143 4c88 3f43 9ebb a143 78cc a143
000000f0: adfd a143 8e25 2243 10c3 9f43 a2b6 1743
00000100: 12d0 a143 6b8f 39c2 4536 a143 8731 9e43
00000110: 824e bb42 9b53 9e43 f057 5ac3 28b0 a143
00000120: 27f7 ff43 b918 b443 36c0 ff43 a787 01c3
00000130: dbe7 ff43 a208 0044 950b 0843 12bf e743
00000140: 5209 0044 9952 9343 79ec ff43 a600 0044
00000150: 7c02 0044 65db aa43 3405 0044 0df9 9c43
00000160: 0206 0044 6a5e d8c2 ce03 0044 6a02 0044
00000170: 8308 2743 93fa ff43 4397 1643 2a01 0044
00000180: c378 2f43 1ff9 6043 af36 3c43 c99b 98c3
00000190: d335 3d43 f50d 3043 6343 8cc3 b11f 3643
000001a0: 9280 4a43 61f8 1543 8315 2f43 56fe 4543
000001b0: 6926 3043 6b05 6943 4651 4743 d19a b442
000001c0: 03df 3443 2bca b0c3 0b7b 2f43 9dd6 3643
000001d0: bbbe 19c3 4743 2f43 a90e f4c2 0918 3043
000001e0: 14f3 4f43 e5a9 a642 1815 4643 8a7d 08c3
000001f0: b4ed 4f43 d342 5043 92b3 aec3 9c97 4f43
00000200: 117b 4f43 7185 50c1 0833 5043 de5e 4f43
00000210: be49 4e43 005c 0243 92fc 4e43 f669 5ac2
00000220: 0ab2 2443 dd03 2ac3 7c99 4f43 b0c6 4843
00000230: 1fff 33c3 4698 3d43 878d 9dc3 3f21 5043
00000240: 71bd 2143 cfac 4042 b789 2343 37ca c841
00000250: a80f 2243 3560 2243 ded8 dec0 cc2a 2243
00000260: 562f 2243 77cf 9f41 a418 2243 541d 2243
00000270: 0b01 2243 ba68 1643 f77d 2343 ec3c ba41
00000280: 5e27 2243 0ecb 57c1 db01 2243 5683 2243
00000290: 53e4 f641 42e6 2143 97b8 39c2 c01b 2243
000002a0: 4b07 1e43 9e18 4742 5915 1e43 7665 bec2
000002b0: 932a 1e43 2dd5 1e43 816e f7c1 3d13 1e43
000002c0: efe7 1e43 9724 ce41 d1d9 1d43 7bd1 1d43
000002d0: 9507 1f43 6e9d cb42 8de5 1c43 ad80 5842
000002e0: b514 1e43 dfc7 01c3 af70 1e43 27ff 1c43
000002f0: fe75 0842 65f7 1d43 d3aa d33f 6fa9 1e43
00000300: adb2 9b42 f56f 4a42 5dd7 b242 7e57 8fc1
00000310: f054 ac42 9fa0 9b42 7301 8dc1 a965 9d42
00000320: 6f8a 9c42 2acb ad41 e1e2 9d42 6b6f 9d42
00000330: 8537 9f42 1702 8f42 4e18 af42 377c e541
00000340: 27fa 8642 6fb2 96c1 372e 9a42 e5c9 a942
00000350: bf3d 8e42 cb83 9b42 2aa0 29c1 819f 9b42
644.3012 390.8637 644.6423 49.961998 644.4122 645.0893 59.98395 644.2789
644.97186 375.27145 643.3398 645.0361 644.26154 376.72284 645.0267 383.1868
644.69 3.069682 642.2277 645.10944 272.95148 641.00116 123.29333 644.90155
405.1527 360.71625 383.22552 -575.96924 391.98267 405.65698 -313.56006 405.44336
405.81317 319.70514 405.31958 405.53455 404.93146 247.2617 405.52478 325.05365
405.41223 -554.90967 405.3075 396.50452 261.42737 405.26233 -123.9216 405.43274
323.13022 157.15826 316.18286 -121.55289 323.43695 323.6559 -89.95766 323.25797
323.69733 191.53241 323.46576 323.5974 323.98184 162.1467 319.52393 151.71341
323.62555 -46.390057 322.42398 316.38693 93.653336 316.65317 -218.3435 323.37622
511.93088 360.19315 511.50165 -129.52989 511.81137 512.1349 136.04524 463.49274
512.1456 294.6453 511.84744 512.01013 512.0388 341.71402 512.0813 313.9457
512.0939 -108.1844 512.05945 512.0377 167.03325 511.9576 150.59087 512.0182
175.47173 224.97313 188.21361 -305.21707 189.21025 176.05452 -280.52646 182.1238
202.50223 149.97023 175.08403 197.9935 176.15004 233.02116 199.31747 90.302376
180.87114 -353.57944 175.48064 182.83833 -153.74504 175.2628 -122.02863 176.09389
207.94952 83.331825 198.0824 -136.49039 207.92853 208.26103 -349.4029 207.59222
207.48073 -13.032578 208.19934 207.37057 206.28806 130.35938 206.9866 -54.603477
164.69547 -170.01509 207.59955 200.77612 -179.99657 189.59482 -315.10568 208.12987
161.74 48.16876 163.53795 25.098738 162.06116 162.37581 -6.963973 162.16718
162.1849 19.976301 162.09625 162.11456 162.00407 150.40909 163.49205 23.279747
162.15378 -13.487074 162.00725 162.51303 30.861486 161.89944 -46.430264 162.1084
158.02849 49.77404 158.08339 -95.198166 158.1663 158.83272 -30.928957 158.07515
158.90599 25.767866 157.85085 157.81828 159.02962 101.80748 156.89668 54.12566
158.08089 -129.78075 158.44017 156.99669 34.115227 157.96638 1.6536506 158.66185
77.848976 50.609333 89.42063 -17.91772 86.16589 77.81371 -17.625708 78.698555
78.27038 21.724201 78.94312 78.71761 79.60844 71.50408 87.54747 28.685652
67.48858 -18.837126 77.09026 84.894325 71.1206 77.75741 -10.601603 77.81153

fc.4.bias f4 [9]
00000000: 7339 21c4 442c cac3 360b a1c3 6011 00c4
00000010: dfdd 2fc3 cb2b 50c3 7bfc 21c3 5fd5 1ec3
00000020: cd8a 9bc2
-644.89764 -404.34583 -322.0876 -512.2715 -175.86668 -208.17107 -161.98625 -158.83348
-77.771095
