SimpleStratifiedWeightsSocioEcon.pth (torch, 7263 bytes, 6 tensors)

fc.0.weight f4 [24, 17]
00000000: 8137 39c2 ffce 0bc2 baec 5ac2 1cd9 0dc2
00000010: 0412 1dc3 1e93 96c2 79e5 40c2 72af 48c2
00000020: 49dd 99c1 e15e 23c3 0909 a6c2 a2a8 3bc2
00000030: b3de 24c2 4194 fac1 0585 30c3 0535 4740
00000040: 2414 dabd 9338 a4c0 e4a9 adc0 9fe2 a6c0
00000050: 2cfc 9cc0 1e84 87c0 cb99 a4c0 6252 edbf
00000060: f253 a3c0 e347 abc0 045e a1c0 92d1 a9c0
00000070: ced3 6cc0 e20e 4ec0 d178 55c0 4146 69c0
00000080: 5672 2bc0 e07a 5abc b3f7 c4c2 39b4 0741
00000090: 26e6 bb42 9b8d d942 2ba1 e9c2 038d ffc1
000000a0: 5752 7942 8a29 ce42 4dc5 dd42 125a fec2
000000b0: 9d1c 20c2 0b81 4542 0380 7c42 7dbe 8a42
000000c0: 116d 02c3 0c9a 7ebf ea95 65be 6f38 d3c2
000000d0: f170 0a42 48ac c040 7332 f040 589b 1ac3
000000e0: 27f2 abc2 60ff a340 1f48 0cc1 3f99 ec40
000000f0: 3d4e 20c3 0878 b3c2 f162 e33f 2092 43c0
00000100: caec ff3f cdcf 27c3 bc97 cc3f 0e32 2a3e
00000110: 31ad 64c3 3032 bf42 ce80 de42 0c55 b442
00000120: 81e7 f941 67c3 8440 6867 1b42 7ed8 8042
00000130: 40cf 8442 7ee5 a942 28ce 9242 7e4d 6341
00000140: 90e1 8941 603b 4441 a4bd 3ec2 0bcf 50c3
00000150: 4e5f 433e ca67 e5c0 409f e1c0 2b48 dac0
00000160: c790 c8c0 827b 8dc0 4854 eec0 b92f f3c0
00000170: 7b45 e2c0 2ce9 bec0 3994 64c0 b6bb c3c0
00000180: bb56 cfc0 588f b9c0 b661 b0c0 4564 48c0
00000190: c9b1 48c0 da73 d0bd 3afa 9cc0 bc56 9ec0
000001a0: d3d9 a5c0 0598 9ec0 535d 81c0 c32e 93c0
000001b0: 5d86 afc0 a40b afc0 559c 9ac0 6abf 68c0
000001c0: 61cf 99c0 bc0e a5c0 bcae a1c0 7455 9dc0
000001d0: 79b0 76c0 80ac dcbf 7c56 123e d71c c0c0
000001e0: 3c9f ddc0 ba27 f9c0 6d00 eec0 9fee 84c0
000001f0: af14 e4c0 95ff f7c0 9cf9 03c1 16fe ecc0
00000200: 7707 3cc0 780b c4c0 5474 00c1 431c ecc0
00000210: 7275 eec0 eeef f1bf 2974 40c0 7a38 2dbe
00000220: eaee 83c2 6e2a f5c1 b477 4541 161f a941
00000230: 15c5 16c3 b75e 6ac2 f5a4 a9be 92ef 6d41
00000240: a8ee ab41 78c2 1fc3 3c03 80c2 8a3b 6c40
00000250: e7f2 9441 10d4 b041 6760 2fc3 d725 723f
00000260: a471 133e 3f34 c4c0 68ce d0c0 c3e3 eac0
00000270: c111 dac0 ff75 70c0 4071 ddc0 be92 efc0
00000280: fcd8 f3c0 8eb3 d0c0 6de6 0ec0 5c14 b8c0
00000290: 77b7 e0c0 4ec9 c3c0 e7e2 c0c0 6278 1ebf
000002a0: 7780 40c0 64ab 813d 2ecb 0f43 131d 88c2
000002b0: 8f82 56bf 47ee 4042 e29f 76c2 f713 89c1
000002c0: e3de 1ac3 636a adc2 a762 2fc2 f06a 62c2
000002d0: 57f6 bcc1 3f50 7dc3 61c1 83c2 b2df 27c2
000002e0: 7cf4 31c2 26d2 0b41 4cc8 b33d 0a46 e5c0
000002f0: 4233 9ac0 7fac 95c0 00e5 97c0 39bc 86c0
00000300: 366d 6bc0 3a77 80c0 3f8c b6c0 c5ff b7c0
00000310: 1c63 a2c0 a3c0 b2c0 fb4c 84c0 2aac ddbe
00000320: 5d97 e2be 7c8e 15c0 61bb 75c0 616d 74be
00000330: bfe4 ddc0 e85b a5c0 db41 91c0 d000 95c0
00000340: a7e4 92c0 3ca5 a2c0 af3e 3cc0 2d21 a0c0
00000350: cd1d adc0 eed7 b9c0 ce01 adc0 ea52 94c0
00000360: 321d 21c0 69aa 26c0 9881 68c0 a58a 7cc0
00000370: a039 86bd 0426 adc2 23cf 6241 b2ce 6e42
00000380: 654c 5342 dcc3 9e41 0dca 6840 c745 1841
00000390: 3eb0 6542 65d7 5c42 b9a0 2342 e41b f941
000003a0: 3496 ad3f 08ba e140 8bd6 503f 4f7c 8ac2
000003b0: 3cde e7c2 ddf0 57be fb61 7fc0 4bb8 b3c0
000003c0: fe74 acc0 688c a6c0 62ed 84c0 ebc7 95c0
000003d0: aba9 b8c0 73d0 afc0 114b a7c0 8a87 87c0
000003e0: a096 94c0 6ade bec0 2e00 bfc0 36c2 bac0
000003f0: 0460 86c0 de76 b9bf a6d1 65be 2804 fcc0
-46.304203 -34.952145 -54.73118 -35.46202 -157.07037 -75.28734 -48.224094 -50.171333
-19.23305 -163.37062 -83.01765 -46.91468 -41.21748 -31.32239 -176.5196 3.112611
-0.10648373 -5.131906 -5.4269886 -5.2151637 -4.9057827 -4.2348776 -5.1437736 -1.8540766
-5.103997 -5.352525 -5.0427265 -5.3068323 -3.7004275 -3.2196584 -3.335499 -3.644913
-2.6788535 -0.01333496 -98.48379 8.4815 93.94951 108.77657 -116.81478 -31.943853
62.33041 103.08113 110.88535 -127.17592 -40.027943 49.37602 63.12501 69.37205
-130.42604 -0.99453807 -0.22420469 -105.61022 34.610294 6.0210304 7.5061584 -154.60681
-85.97295 5.1249237 -8.767608 7.393707 -160.30562 -89.734436 1.776457 -3.0557938
1.9994137 -167.81172 1.5983806 0.16620657 -228.67653 95.59802 111.25157 90.16611
31.238039 4.148853 38.850983 64.42284 66.404785 84.94823 73.40265 14.206419
17.235138 12.264496 -47.685196 -208.80876 0.19079325 -7.1689196 -7.0506897 -6.8213096
-6.267673 -4.4213266 -7.4477882 -7.5995755 -7.0709815 -5.9659634 -3.5715468 -6.116664
-6.479337 -5.798748 -5.5119276 -3.13112 -3.1358511 -0.10178347 -4.905545 -4.9480877
-5.18284 -4.956057 -4.042642 -4.599458 -5.485152 -5.470171 -4.8315835 -3.636683
-4.806565 -5.1580486 -5.05258 -4.9166813 -3.854521 -1.7240143 0.14290804 -6.0035205
-6.925688 -7.7860994 -7.437552 -4.1541286 -7.127525 -7.749949 -8.24844 -7.4060163
-2.9379556 -6.1264 -8.0284 -7.37845 -7.4518366 -1.8901346 -3.0070899 -0.16916075
-65.96663 -30.645718 12.341724 21.140179 -150.76985 -58.592495 -0.33133665 14.870989
21.491531 -159.75964 -64.00632 3.691134 18.618605 22.103546 -175.37657 0.9458899
0.14398819 -6.1313777 -6.525196 -7.340303 -6.814667 -3.757202 -6.9200745 -7.486663
-7.6202374 -6.5219183 -2.232814 -5.7524853 -7.0223956 -6.1183233 -6.027698 -0.6190244
-3.0078409 0.06331518 143.79367 -68.056786 -0.83792967 48.232693 -61.656136 -17.134748
-154.87065 -86.70779 -43.84634 -56.60443 -23.620283 -253.31346 -65.87769 -41.968452
-44.488754 8.738806 0.08778438 -7.1647997 -4.818757 -4.6773067 -4.746704 -4.2104764
-3.6785407 -4.014554 -5.70462 -5.749972 -5.0745983 -5.586015 -4.134397 -0.43295413
-0.44256106 -2.3368216 -3.8395617 -0.2386985 -6.934173 -5.167469 -4.539289 -4.656349
-4.5904117 -5.08267 -2.941326 -5.00405 -5.409888 -5.8076086 -5.4064703 -4.6351213
-2.517407 -2.604151 -3.6329098 -3.9459622 -0.0655396 -86.57425 14.1755705 59.70185
52.824604 19.845634 3.6373322 9.5170355 57.42211 55.210346 40.906956 31.138618
1.3561463 7.053959 0.81577367 -69.24279 -115.93405 -0.21087976 -3.9903553 -5.6162467
-5.3892813 -5.2046394 -4.1539774 -4.680654 -5.7707114 -5.4941955 -5.2279134 -4.2352953
-4.643387 -5.96465 -5.968772 -5.8362074 -4.1992207 -1.44894 -0.22443256 -7.8755074

fc.0.bias f4 [24]
00000000: 6c18 cac2 fbb0 a2c0 c0f8 55c2 de89 ccc2
00000010: a07e 5842 7e1c aec0 f536 95c0 ffce b0c0
00000020: 1f5d aac2 f996 99c0 2b63 08c2 e8ad a0c0
00000030: 5d83 9cc0 4e65 8441 2eb1 9dc0 d153 adc2
00000040: 169c 97c0 4a5c f4c2 8425 a7c0 5100 a5c0
00000050: 5b17 aec0 e1e7 9c41 20d1 30c1 0b63 9ac0
-101.0477 -5.084104 -53.49292 -102.26927 54.123657 -5.440978 -4.6629586 -5.525268
-85.18188 -4.7996793 -34.096844 -5.021229 -4.8910356 16.549465 -4.9278784 -86.663704
-4.7378035 -122.18025 -5.2233295 -5.1562886 -5.440351 19.613222 -11.051056 -4.82459

fc.2.weight f4 [24, 24]
00000000: e645 9643 8a60 8641 5723 b842 2e50 6043
00000010: 94e9 0a42 9aba 8841 e04e 8741 a330 4441
00000020: ea3f 9143 36fe bc41 f564 a542 5e57 8441
00000030: 3852 8741 88a9 8c40 66da 8441 432d 8f42
00000040: d891 8541 804c a942 a3f9 7a41 f47a 8741
00000050: 988c 8f41 8cb4 22c1 94e6 5241 e090 8441
00000060: 2ea0 86c3 72ad abc3 362b 3ac3 a48a 87c3
00000070: d624 a9c3 f0d3 abc3 1cda abc3 1e25 a5c3
00000080: 1e5e 60c3 0750 a5c3 000f 6fc2 3cd3 abc3
00000090: eea3 abc3 a2ca adc3 ca10 acc3 5cb2 ac41
000000a0: 86c5 abc3 d915 24c4 a74c a9c3 8c9d acc3
000000b0: 918e abc3 b120 ccc2 c2ab acc3 20c7 abc3
000000c0: 1912 5dc3 f5e4 6bc3 f393 b1c2 a3fb dcc2
000000d0: a224 72c3 e756 6cc3 6567 6bc3 d9ef 6ac3
000000e0: 61a0 10c3 df92 54c3 da81 7b41 1b3d 6bc3
000000f0: 4da1 6bc3 e567 78c3 e135 6bc3 016f db42
00000100: 2d78 6bc3 88e1 14c1 add1 6ac3 db5c 6cc3
00000110: 7b56 69c3 4d09 88c3 890f 64c3 e37a 6bc3
00000120: cf11 9643 b821 5041 7d05 b642 ae94 5f43
00000130: 80b9 0c42 78dc 5341 8ecb 4b41 20c7 0741
00000140: d5f4 9043 55d4 a241 5f89 a742 1a1c 4f41
00000150: fa05 4d41 2a82 4d3f a879 5041 4427 9142
00000160: 94d0 5141 37f5 a842 6208 4241 1695 5441
00000170: e224 6141 d4d0 21c1 8f1e 2041 2c78 4e41
00000180: 7a86 9543 7cd0 3f41 ff1c b542 919a 5e43
00000190: c425 1d42 1436 4241 b408 3f41 95b1 ea40
000001a0: 606d 9043 5d75 9841 3c12 a742 be04 3f41
000001b0: b089 4141 5c56 663d 5ed5 4041 a871 9042
000001c0: 48d2 3e41 b45b a942 364c 2e41 84b7 4541
000001d0: 0ed4 5341 3557 39c1 a2c7 1641 805b 4341
000001e0: 6a24 9643 733d 4841 78b3 b742 b6dc 5f43
000001f0: 068e 0b42 a9c4 4d41 11f2 4341 493a f440
00000200: c814 9143 5b8d 9c41 0e46 a942 adb1 4941
00000210: a333 4741 d0a2 623f 4911 4a41 e9cc 9242
00000220: 5f45 4841 e7bd aa42 8910 3441 bbe3 4c41
00000230: 1f0d 5741 9b0d 30c1 591f 1b41 513b 4541
00000240: b38c 9543 4b21 3141 c5a5 b542 7917 5f43
00000250: 17b9 0e42 c50d 3541 2b8f 3341 a9f4 d540
00000260: c356 9043 5f45 9441 5446 a942 6716 3241
00000270: 4d37 3441 21f7 963f bd41 3341 b5b0 9242
00000280: b92b 3241 358f a842 6931 2041 ffa3 3741
00000290: e174 4841 0972 3bc1 d114 0541 7f6e 3141
000002a0: 8bb2 0a42 e40f 00c2 b233 f842 129d b641
000002b0: a627 05c2 6d6c 01c2 1160 ffc1 ece3 a6c1
000002c0: 3dbf 8842 22fb 8fc1 8fa0 a8c3 767d fdc1
000002d0: 265e 00c2 4fa1 2bc2 f504 00c2 fa08 e9c2
000002e0: deb7 ffc1 3f6b 3ac3 e2f3 e0c1 3b2a 05c2
000002f0: 52fd 01c2 8673 a1c2 3158 04c2 57ed fdc1
00000300: 24ab 36c3 9a44 50c3 c39d 6fc2 3c11 cdc2
00000310: 1a47 5ac3 1e18 4fc3 a838 50c3 02b8 4fc3
00000320: 2c8f d4c2 94be 3fc3 7a39 20c1 d43f 50c3
00000330: bc08 50c3 8c6c 5ec3 0e21 50c3 5a3e f242
00000340: ca18 50c3 40ac 4e42 1467 4cc3 4ad4 51c3
00000350: 7cf5 4dc3 ccaf 7bc3 c8ab 4bc3 aa08 50c3
00000360: be86 9a43 fde3 1542 293a d242 6040 6843
00000370: 95a1 c542 67a0 1742 4fb2 1642 0d62 0342
00000380: 82d0 9543 65a4 2b42 195a aa42 7369 1542
00000390: e5ab 1542 a201 8842 ebab 1642 03de 9142
000003a0: b9eb 1642 c29c b742 bb05 1242 b9f7 1642
000003b0: a567 1a42 61a8 c142 a0fb d341 2578 1542
000003c0: c8df dac2 e817 d2c2 caef c942 a420 c5c2
000003d0: 61dd 7a41 120c d1c2 aa80 d0c2 b591 f8c2
000003e0: 6ad9 dfc2 2282 e6c2 e8e3 efc2 449c cfc2
000003f0: 22cc cfc2 76f5 4543 d441 cfc2 caf7 e1c2
300.54608 16.797138 92.06902 224.3132 34.728104 17.091114 16.913513 12.261874
290.49933 23.624126 82.69718 16.54266 16.915146 4.3956947 16.60664 71.5884
16.696213 84.649414 15.685946 16.935036 17.94365 -10.169079 13.1812935 16.57074
-269.2514 -343.35504 -186.1688 -271.08313 -338.28778 -343.65576 -343.70398 -330.28998
-224.36765 -330.6252 -59.76465 -343.65027 -343.2807 -347.58307 -344.13116 21.58709
-343.54315 -656.3414 -338.59885 -345.23083 -343.1138 -102.06385 -345.34186 -343.55566
-221.0707 -235.89436 -88.78896 -110.49148 -242.1431 -236.33946 -235.40388 -234.9369
-144.62648 -212.57372 15.719202 -235.2387 -235.63008 -248.40584 -235.21046 109.716805
-235.46944 -9.305061 -234.81905 -236.36272 -233.33781 -272.07266 -228.06068 -235.48003
300.13913 13.008232 91.01072 223.58078 35.181152 13.241325 12.737196 8.4861145
289.91275 20.353678 83.7683 12.944361 12.813959 0.8027674 13.029701 72.57669
13.113422 84.478935 12.127047 13.286398 14.071505 -10.113483 10.007461 12.904339
299.0506 11.9883995 90.55663 222.60378 39.28688 12.138203 11.939625 7.3341775
288.8545 19.057306 83.535614 11.938658 12.096115 0.056234702 12.052092 72.221985
11.926338 84.67911 10.893606 12.357304 13.239271 -11.583791 9.4237385 12.209839
300.2845 12.515002 91.850525 223.86215 34.888695 12.860513 12.246598 7.632115
290.16235 19.569021 84.636826 12.605878 12.450107 0.8852968 12.62922 73.400215
12.516936 85.3709 11.254037 12.805598 13.440703 -11.003322 9.695153 12.326982
299.0992 11.070628 90.82377 223.09169 35.68075 11.315862 11.222453 6.6861157
288.67783 18.533873 84.63736 11.130469 11.263501 1.1794168 11.203549 73.34513
11.135674 84.2797 10.012063 11.477538 12.528535 -11.715341 8.317582 11.089477
34.67436 -32.01552 124.10097 22.826694 -33.28872 -32.355885 -31.921907 -20.86129
68.37351 -17.997623 -337.25436 -31.68626 -32.09194 -42.907528 -32.00484 -116.51753
-31.964779 -186.41893 -28.119083 -33.29124 -32.497383 -80.72563 -33.086124 -31.740889
-182.66852 -208.26797 -59.904064 -102.53366 -218.27774 -207.09421 -208.22131 -207.71878
-106.27963 -191.74445 -10.014032 -208.24933 -208.03412 -222.42401 -208.12912 121.12178
-208.09683 51.668213 -204.40265 -209.82925 -205.95892 -251.6867 -203.67102 -208.03384
309.05267 37.472645 105.113594 232.25146 98.81559 37.906643 37.67413 32.845753
299.62897 42.91054 85.17597 37.352978 37.417866 68.00319 37.66789 72.93362
37.730198 91.80617 36.505596 37.741917 38.601215 96.828865 26.497864 37.36733
-109.43707 -105.04669 100.96834 -98.56375 15.679048 -104.523575 -104.2513 -124.284584
-111.92464 -115.254166 -119.94513 -103.80521 -103.8987 197.95883 -103.62857 -112.98396

fc.2.bias f4 [24]
00000000: c850 86c1 d618 ac43 98eb 6a43 0a38 4ec1
00000010: fc60 40c1 e011 45c1 ed6c 31c1 0e1a fc41
00000020: 7340 5043 c04b 16c2 fc24 cf42 ef36 5c43
00000030: e8c8 7ec1 b568 2e43 0dd6 50c1 9d2d 4143
00000040: 89f8 36c1 1b15 e5c1 32c8 1443 8c9d e243
00000050: c24b 4943 37e1 9443 7dec e742 6f24 9843
-16.789444 344.19403 234.92029 -12.888681 -12.023678 -12.316864 -11.089093 31.512722
208.25175 -37.573975 103.572235 220.21458 -15.924049 174.40901 -13.0522585 193.17818
-11.435678 -28.635305 148.78201 453.23083 201.29593 297.7595 115.96189 304.28464

fc.4.weight f4 [9, 24]
00000000: a95e 8dc2 30b9 b641 fe8a 4643 b545 8ec2
00000010: c4c4 8dc2 8fa5 8ec2 e684 8fc2 cf2d 8942
00000020: dc4a 4943 b158 8bc2 d798 1244 76e5 8ec3
00000030: 7a37 8dc2 3150 20c3 e004 90c2 3f1e 4343
00000040: 64f3 8dc2 c5b0 8bc2 590e 8cc1 6cd6 90c3
00000050: 0005 6143 53ee 9043 a9b1 a7c2 65a5 77c3
00000060: 398f 9cc2 3167 e0c0 79b3 2a43 407c 9cc2
00000070: b1fd 9cc2 9321 9dc2 7ee1 9cc2 e32b 0f41
00000080: ae7b 4743 7fcf 98c2 85dc cf43 8b3d 63c3
00000090: 9f89 9cc2 63b9 57c3 d5c1 9cc2 d9ea 5d43
000000a0: 11f7 9cc2 1d19 9bc2 dc06 2641 fdb1 afc3
000000b0: 0fc5 8f43 4aca cb43 3551 a7c2 ca73 78c3
000000c0: cb9d 50c2 8041 87c2 ec67 0343 b215 65c2
000000d0: 5238 68c2 dff5 6cc2 3af1 70c2 8d13 8c43
000000e0: 9eb4 1543 65e9 ee3f 9f0a f741 0623 a6c2
000000f0: 3a62 4fc2 6463 2143 a489 68c2 3ad0 0b43
00000100: 53c4 6fc2 bd4f 56c1 973c 1841 9c46 bcc3
00000110: b215 2943 ca6c 9443 7f5d c8c2 3b1a 12c3
00000120: 0901 85c2 a33f f2c2 415e 0c43 5583 86c2
00000130: cd64 86c2 9cfc 86c2 fbbb 87c2 c86e 4a43
00000140: 2386 2343 7056 7ec2 f786 0044 5bd7 0842
00000150: b9ec 84c2 b895 1a43 38e5 87c2 f697 3c43
00000160: a16e 86c2 f06c 81c2 dfdd fe41 b949 18c4
00000170: d85a 8d43 096a b843 1c26 c1c2 24a7 75c3
00000180: a640 7bc2 1b0b 36c3 c82e 0b43 df6a 7cc2
00000190: a75d 7ec2 d61e 7cc2 74de 7dc2 807e 51c2
000001a0: 8bbf 1e43 7480 3ac2 9f8c af43 d906 3443
000001b0: 5b57 7bc2 b8ec 5f42 2669 7ec2 493e 1d43
000001c0: 6113 82c2 8815 54c2 7f83 82c2 883c c6c3
000001d0: 6205 7743 ac5c 7443 5c23 a6c2 4094 70c3
000001e0: 727c 68c2 ef7f 6cc3 edd6 fa42 5831 68c2
000001f0: a800 69c2 9a67 65c2 a271 67c2 cf49 5843
00000200: 120b 2a43 97b4 5bc2 3542 c143 f2d4 3b42
00000210: 773b 68c2 1638 9942 c700 68c2 de86 2943
00000220: a982 6ec2 0057 62c2 5293 8442 6222 d0c3
00000230: 3321 5b43 0ab4 7243 5544 b9c2 7e70 6ac3
00000240: fccb 76c2 d169 88c3 8982 0443 6fec 7dc2
00000250: ecae 80c2 5058 80c2 2e07 83c2 3d97 0cc3
00000260: 3e46 3f43 b8c0 a1c2 9b8a 0244 ed77 7ac2
00000270: 267b 78c2 f107 3543 b5fe 81c2 4049 4f43
00000280: ccc3 71c2 7e9a 90c2 1aca 1fc2 11b8 fdc3
00000290: 3809 8143 001c c243 796b e5c2 3120 8ac3
000002a0: 4410 3cc2 ab94 75c3 f483 f542 f113 42c2
000002b0: aaf2 46c2 6750 44c2 7ae3 48c2 03f2 9242
000002c0: 16eb 2443 862c 81c2 67e4 8d43 9672 e142
000002d0: 4b4d 3dc2 8d40 5f43 fcc6 47c2 e0d3 2b43
000002e0: 6dc9 34c2 726d 64c2 a73e 8442 da73 17c4
000002f0: fe01 3d43 a9f7 a943 7951 f2c2 340f 80c3
00000300: b6eb 4ec2 8d9b cac3 4c6c a142 dcd9 4ec2
00000310: e279 51c2 4cd0 4ec2 ea5c 52c2 80db 10c2
00000320: 4203 2c43 f1d5 a6c2 5fb6 c243 7d91 1e43
00000330: 74fc 51c2 40a4 7643 a4bf 52c2 c58b 3843
00000340: 9618 5bc2 f71c 9ac2 45f3 a5c1 f4bb f0c3
00000350: cf66 8843 ed6a 0d43 74ef f6c2 7b93 6ec3
-70.68488 22.840424 198.54294 -71.13615 -70.88431 -71.32336 -71.75957 68.58947
201.29242 -69.673225 586.3881 -285.79266 -70.60835 -160.31325 -72.00952 195.11815
-70.97537 -69.84525 -17.507006 -289.67517 225.01953 289.8619 -83.84699 -247.64607
-78.27973 -7.0125966 170.70107 -78.242676 -78.49549 -78.565575 -78.440414 8.948215
199.48312 -76.405266 415.7228 -227.2404 -78.26879 -215.72417 -78.37858 221.91737
-78.48255 -77.54905 10.376675 -351.39053 287.53952 407.58038 -83.65861 -248.4523
-52.154095 -67.62793 131.40594 -57.271187 -58.055 -59.24011 -60.235573 280.15274
149.70554 1.8664976 30.880186 -83.068405 -51.845924 161.38824 -58.134415 139.81339
-59.941723 -13.394467 9.514792 -376.55164 169.08475 296.8499 -100.18261 -146.10246
-66.50202 -121.12429 140.36818 -67.25651 -67.19688 -67.49338 -67.86715 202.43274
163.52397 -63.58441 514.1088 34.210308 -66.46235 154.58484 -67.94769 188.5936
-67.21607 -64.71277 31.858335 -609.1519 282.70972 368.8284 -96.57443 -245.6529
-62.813133 -182.04338 139.18274 -63.104366 -63.591457 -63.030113 -63.46724 -52.373535
158.74821 -46.625443 351.0986 180.02675 -62.835308 55.98117 -63.602684 157.2433
-65.03785 -53.021027 -65.25683 -396.4729 247.02103 244.362 -83.06906 -240.5791
-58.12153 -236.49974 125.41978 -58.048187 -58.25064 -57.351173 -57.86097 216.28831
170.04324 -54.926357 386.51724 46.957954 -58.05807 76.60954 -58.00076 169.52682
-59.627598 -56.58496 66.287735 -416.26862 219.12968 242.70328 -92.63346 -234.43942
-61.699203 -272.8267 132.5099 -63.480892 -64.341644 -64.172485 -65.51402 -140.59077
191.27438 -80.8764 522.1657 -62.617115 -62.120262 181.03102 -64.997475 207.28613
-60.441208 -72.30174 -39.947365 -507.43802 258.07202 388.21875 -114.70991 -276.2515
-47.015884 -245.58073 122.75772 -48.519474 -49.736977 -49.078518 -50.222145 73.47268
164.9183 -64.58696 283.7844 112.7238 -47.32548 223.25215 -49.94432 171.82764
-45.196705 -57.10688 66.12237 -605.8102 189.00778 339.93484 -121.15913 -256.11877
-51.730186 -405.21524 80.71152 -51.712753 -52.369026 -51.703415 -52.590736 -36.214355
172.01273 -83.417854 389.42477 158.56831 -52.496536 246.6416 -52.68715 184.54597
-54.77401 -77.05657 -20.743784 -481.46838 272.8032 141.41768 -123.46768 -238.5761

fc.4.bias f4 [9]
00000000: 6856 09c2 a5cf 95c2 6f0e 52c3 acba 5bc4
00000010: 3bf8 9fc4 83af b3c4 8f91 97c4 70e6 8bc4
00000020: 5ca4 f6c4
-34.33438 -74.905556 -210.05638 -878.91675 -1279.7572 -1437.4847 -1212.5487 -1119.2012
-1973.1362
